Hybrid_BTC_Predictor.pth (torch, 988262 bytes, 20 tensors)

weight_ih_l0 f4 [512, 4]
00000000: 0927 ad3d ad75 85bd c8e9 973c 7d0b 973c
00000010: 0c80 18bc 97f1 9a3c a396 a2bc 3817 653d
00000020: 73c8 afbc f469 9c3d 19a4 41bb 756e 873c
00000030: 4a1f aa3c cadd 063c 70f2 a83c 6c45 0dbd
00000040: 99a6 823d 6b5e 8dbd 85d4 973c 0910 643d
00000050: 4258 0c3c 2fe3 38bd d3fc a13b ab99 c2bc
00000060: 9438 e73c aabd 4f3d f21d 41bd d577 d6bb
00000070: cf95 573d 7ce9 71bc bdf5 95bd 0ba1 b73c
00000080: efbd 47bd c70b 83bd cb95 f2bc 0ab2 543d
00000090: 71db a33d ab47 babc 1ecc 6fbd 49cc 7f3d
000000a0: 7e11 77bd 2750 3d3d 5969 083b 61d4 823d
000000b0: a666 95bd 661f ad3d 481a eb3c 500a 6abd
000000c0: ae2b 62bd c2b4 a63d 85c2 73bb 4cc2 4abc
000000d0: 77d7 8dbd 8043 993c 88bd a23b 87c5 a13d
000000e0: 8e10 f73a ed47 8b3d 0794 b439 02ba 0cbd
000000f0: 518a 83bd eb30 b73c 5196 65bd 157d b23d
00000100: 88bf c3bd 20ae ccbc 8f12 873d 88ed bbbd
00000110: 67f6 8fbd 59fd 8a3d 09ad 20bd a9f4 36bd
00000120: a752 44bc ea8d 7a3d 01eb 6dbd f030 27bd
00000130: 79df ca3c 01ba b13d b2e0 833d 1e24 2fbd
00000140: ca92 87bc aa57 643d 0c20 33bd b5c9 8bbd
00000150: 5a73 a6bc 1444 223d cc66 96bd c160 bfbd
00000160: 2f0f 4f3d fe93 863d 99e4 afbd f03e b7bd
00000170: 17a6 a4bd 364a 063d 69d7 0dbd 3405 3e3d
00000180: 206c adbd 593d 8a3d 4cad 92bd aa8a 753d
00000190: 5a83 233d 3984 7dbd 6e3a c8bc 7eb6 443d
000001a0: 96ef 0abc 78ce 453c f08e 80bb cc21 56bd
000001b0: a646 f73c 7e24 8e3d 6821 973d 6bac 1fbd
000001c0: a583 9b3c 0ca2 a7bd 3892 af3d 2538 a53d
000001d0: bd67 7cbd 4a32 6bbd 8152 34bd 42fc 7ebc
000001e0: 52a4 9ebc 1915 913d ef28 163d b85f 5abd
000001f0: e34b fdbc 17d5 9ebd 24dc c9bc de49 853d
00000200: 7246 9c3c 565a 1d3d 1364 21bd 7052 353d
00000210: 2a78 2c3d edd2 ed3c fe21 1b3c 50bb 943c
00000220: 3a68 13bc 2d80 34bd a969 3abd 1263 b63c
00000230: be21 563d 71cc 3e3d ff4d 973d 888f 84bd
00000240: 67e7 b03b c4dc f5bc e99a 72bc 3d5f 9d3d
00000250: 3ee7 aa3c bef2 233d a740 57bd 8736 98bd
00000260: cb8e 31bd cdb6 813d dbcb 993c 3ab4 1abc
00000270: 310a 4ebd ceb1 32bc f4bd 67bc 4c59 af3c
00000280: 0285 f5bc 5935 a53d 66df 393d 11cc eebc
00000290: 1825 8b3b 49ce 0a3d e72f 99bd e624 bbbd
000002a0: 370e 48bd ec3d 3a3d 75e7 493d b7e7 8e3d
000002b0: 6c22 99bc dc36 0b3d 4fd3 95bd 5222 82bc
000002c0: c33c 593b e9ca 6e3d 6418 abbd 3c14 943c
000002d0: cbe4 cb3c 1a01 8bbc 284b 143d 5f32 933d
000002e0: 2f0d afbd 2d57 9e3d 307c a8bd 7ea9 083c
000002f0: 047e b03d fb9c 853c 7106 663d bf8d 15bd
00000300: 5c2e 18bd bd1a 913c aa21 2b3d b492 6bbd
00000310: e4d2 0f3d 664d 8cbd 6ff2 a03b 4128 1cbd
00000320: b910 80bb 94dd 25bd ecf4 103d ae1c a93d
00000330: fcae 353d 0a05 92bd 2f56 6ebd 624c 813b
00000340: 69a8 913d 26f7 40bd 0b89 7ebd 4f3d 8e3d
00000350: 42c5 0f3d cf07 a43c 5bb4 153d a04e 2cbd
00000360: 4e56 cb3c 279b 82bd 9a6c 4a3d 1c24 41bd
00000370: cac4 ec3c 1352 8d3c c920 953d 0cf3 72bd
00000380: b245 6c3d d02d b3bd 5e93 35bc 383c 313d
00000390: 66a3 8b3d e109 22bd b669 973c ae7f 6abd
000003a0: a9d0 d7bc a156 01bd dd83 0fbc 063a d7ba
000003b0: 7ff2 533d 8026 9f3c 9811 8f3d 3db1 0fbd
000003c0: c032 8abd c3d8 6cbd 29a0 23bd 3a4e 7b3d
000003d0: bb90 8fbd 95cf 533d f962 ffbb 752d 90bb
000003e0: b888 e4bc 5221 90bd 79be 3e3d 140a 46bd
000003f0: c4ff 91bd 583d 343d ae48 273d f3f9 183d
0.08454711 -0.065165855 0.018544093 0.018438095 -0.0093078725 0.018914027 -0.01984722 0.055930346
-0.021457886 0.076373965 -0.0029547273 0.016532162 0.020766873 0.00823159 0.020623416 -0.034490034
0.06379432 -0.069027744 0.018533954 0.055679355 0.008565964 -0.045138534 0.004943469 -0.023754915
0.02822522 0.050717987 -0.0471477 -0.006545047 0.052633103 -0.01476514 -0.073222615 0.022415658
-0.04876512 -0.06398731 -0.029612442 0.051927604 0.080008395 -0.022739252 -0.05854427 0.06245068
-0.060319416 0.046219017 0.0020814745 0.06388164 -0.07294969 0.084532544 0.028699055 -0.05713874
-0.055217437 0.081399456 -0.00371948 -0.012375426 -0.06925862 0.018708944 0.0049664415 0.078990035
0.0018849538 0.06800828 0.00034442564 -0.03435708 -0.06422866 0.022362193 -0.056051556 0.08715264
-0.09558016 -0.024985373 0.06595337 -0.09176165 -0.070294194 0.067866035 -0.03922752 -0.04466692
-0.0119825965 0.061170496 -0.058085445 -0.040818155 0.024764763 0.086780556 0.064393416 -0.042759053
-0.016549487 0.055747665 -0.043731734 -0.06825582 -0.020318676 0.039615706 -0.07343826 -0.09344626
0.05055159 0.06571196 -0.085885234 -0.08947551 -0.080394916 0.032785617 -0.03462926 0.04639168
-0.08467889 0.067499824 -0.0716196 0.059946693 0.03992019 -0.061893675 -0.024441924 0.0480256
-0.008479973 0.012073152 -0.0039232895 -0.052278325 0.030185055 0.06940554 0.073794186 -0.03898279
0.018983671 -0.08185205 0.08572811 0.08067349 -0.06162237 -0.057421006 -0.044023994 -0.015563073
-0.019365463 0.07084102 0.03666013 -0.05331394 -0.030919975 -0.077554874 -0.024641104 0.0650823
0.01907656 0.03841623 -0.03940208 0.04426807 0.042106785 0.029031241 0.009468554 0.018155724
-0.0089970175 -0.04406755 -0.04551092 0.022264037 0.052278273 0.04658169 0.073879234 -0.06472689
0.005398679 -0.030012496 -0.014807441 0.07684181 0.020862218 0.04002642 -0.05255189 -0.07432275
-0.04334907 0.063336946 0.018773964 -0.009442383 -0.050302688 -0.01090665 -0.014144409 0.021404885
-0.02997065 0.08066816 0.045379065 -0.02915004 0.0042463653 0.033888135 -0.0747984 -0.09137897
-0.04884168 0.04546921 0.049293 0.0697779 -0.018693171 0.033987865 -0.073156945 -0.015885506
0.003314779 0.05829898 -0.083542615 0.018076055 0.02488937 -0.016968299 0.036204487 0.07187342
-0.085474364 0.07731471 -0.08226812 0.008341191 0.086177856 0.016310206 0.056158487 -0.036512133
-0.037153587 0.017712945 0.04178015 -0.057512954 0.03511323 -0.068507 0.004911713 -0.038124327
-0.0039082435 -0.040494516 0.035389826 0.08257423 0.04435633 -0.071298674 -0.05818766 0.003945873
0.071122 -0.0471107 -0.062142413 0.069452874 0.03510023 0.020023255 0.036548954 -0.04206717
0.024821427 -0.06377249 0.049419977 -0.047153577 0.02890243 0.01725105 0.07281644 -0.05931382
0.057683654 -0.087489724 -0.011082498 0.04327032 0.06818275 -0.039560203 0.018483024 -0.05725067
-0.026344614 -0.031576756 -0.008759466 -0.001642049 0.051744934 0.019427538 0.069857776 -0.035081137
-0.06747961 -0.057823908 -0.039947663 0.0613539 -0.07010027 0.051711638 -0.007793781 -0.00439995
-0.027897224 -0.07037605 0.046568368 -0.048349455 -0.071288615 0.044003814 0.040840797 0.037347745

weight_hh_l0 f4 [512, 128]
00000000: 474e 6dbd ac50 953d 836a 443d e1a3 873d
00000010: fd2d b23d 8a7c b93d 82f8 3fbd a565 0a3d
00000020: a825 ad3d 520f 8abc fd4e a03c f24e 0d3c
00000030: d84c 703c 3ef4 953c dd2b 7f3d d72a 25bc
00000040: 1085 afbd d238 abbd 5b4e 453d 480a 0c3c
00000050: 0a9f 87bd 9439 4d3d eea7 b6bd 23f0 fabc
00000060: f390 e0bc 55bf a83d 8daa 343d 82c5 203d
00000070: 5c87 af3d 75db b73c 0388 8d3d f3a7 1fbd
00000080: 7528 98bd e498 98bd 3099 243d 6566 88bb
00000090: 2b31 d7bc ecf9 51bd 46f2 3c3d 32d2 91bd
000000a0: c02c 1cbd c9fe 443d fc4a 493c 6166 40bc
000000b0: 3a7e 1dbd 6e2c c5bc 9049 a8bd ebef 943d
000000c0: d076 3abd 759a fcbc daae 6a3d 38f4 e93c
000000d0: b4cc a53d f9f2 8fbd 2bc1 e53c a83a 92bb
000000e0: ac38 2b3d 4b8b 7bbd ada9 adbd 737e 583b
000000f0: cc2c a43c 5030 a8bd 4f55 a8bd f533 6f3c
00000100: 27df e23c 18bc 8dbb f595 6b3d c105 633d
00000110: 0ac2 4abc 87a9 3fbd c547 933d 6c4b b0bd
00000120: 11fd db3b 352a a93d c289 4d3d e3d8 46bd
00000130: 7ac9 68bc ac6c 2cbd a15e 8c3d 974e 42bd
00000140: e56a f8bb 7ea2 57bd 2339 143d a586 8ebd
00000150: fb77 79bd 049b 09bb 449f 8bbc 0ec8 ac3d
00000160: 30c2 19b9 65e4 17bd 2264 1a3d e3a1 95bd
00000170: 70d7 993d e78f 73bd db15 e139 8717 1abd
00000180: 58a6 a03d 4ae4 72bd 5ff5 213c 0b85 b13a
00000190: f25d 84bd 0995 b2bb 9ad5 2e3d 167f 30bc
000001a0: 3509 2e3c c41e b7bd e0f3 853d 0289 c9bc
000001b0: 5be4 32bd 038a a13c aecf f13c 4c37 9a3c
000001c0: 7435 e6bc 51b8 9c3c b915 98bd fd74 303d
000001d0: 5ad9 46bd 3cfc 963d bfb1 02bd 9530 c8bc
000001e0: 362d 1ebd 566f 9abd a2c6 6f3d 7f35 0bbb
000001f0: 54bf 713d 7696 61bd 10aa 8b3c ad6d 8cbd
00000200: 2597 10bd 10b2 143d 4212 ea3b 6828 a43d
00000210: f0e1 9c3d baa3 57bd 4511 7dbd f208 bd3d
00000220: 464f 283d b63d 18bd 66c5 ffbc 6b67 d8bc
00000230: 9275 843d 5ce8 123d 10e1 0a3d 2ffe c23a
00000240: ce05 cd3c 28f3 94bd e7b4 acbc d832 d53b
00000250: 13ff 863c 8569 57bd dcd4 9a3d 71c5 ae3d
00000260: d810 8e3d 83a1 113d a1f9 653c 393a 4b3d
00000270: 4c6e a5bc 52ca a9bb b4e8 b3bd a89d 60bd
00000280: 3b6a 743d 2cce 1fbd e4a1 283d 8117 bd3d
00000290: ca7e 273d 5645 193c 96df 49bd dc34 e0bb
000002a0: 8347 8f3d 1b96 a93d a07d 40bd 5445 e9bc
000002b0: 3e63 143d 3b17 41bd 10bd a3bd f0ea 193d
000002c0: ccd7 30bd 8b65 b63d e141 9e3d 6bb2 1ebd
000002d0: 1772 41bd 179e 86bd 65c5 b43d cd94 09bc
000002e0: 06bf acbc 60e5 4c3d fbb1 7a3c 06dc 693d
000002f0: b7da 793d 2365 9abc df07 81bd c3c1 273d
00000300: 9686 9bbd 3c13 84bd ce12 0fbb 5d0a 1f3d
00000310: 581e 863d 086d 133d 58c4 a7bb 3e7b 673d
00000320: 6564 1c3d df35 67bd e12e 06bd 8334 78bb
00000330: 8b08 93bd 9d67 1c3d b703 2e3d db7e a4bc
00000340: 1238 cd3b 8bd4 9a3d 2276 a3bd 60c3 37bd
00000350: 20be 5a3b e284 83bc bf1b 683c fcbd 5a3c
00000360: 6db1 a63d 1ef6 29bd 6b74 873d 5175 113b
00000370: 5be9 14bd d0b3 cabc 14d1 5fbd 0ddb 6cbd
00000380: 0f65 69bd 3f6c 82bd ba06 a3bd 1f0b 73bd
00000390: e125 123d 55b7 a7bc 1bdc 043d c476 8dbd
000003a0: 7239 7bbd ec3e 98bc 0d7c b9bb 5d66 883d
000003b0: 6e10 8c3d 3ead ae3d 653c 3b3d 6864 323d
000003c0: f1dd 833c 3912 bd3d af88 88bc e198 26bd
000003d0: 0927 bd3d c46c be3b 5e15 1bbd 8512 9dbc
000003e0: c338 a0bd 06fa 07bc 91f0 853d 57ff 06bc
000003f0: b69f 11bd 9da6 2ebd 8918 99bc b6bd 36bd
-0.05793598 0.072907776 0.04795314 0.06623054 0.08700178 0.09056957 -0.046867855 0.033788342
0.08454448 -0.016853008 0.019568915 0.008624779 0.0146667585 0.01830494 0.06229769 -0.010081015
-0.085703015 -0.08360447 0.04817043 0.008547373 -0.06622131 0.05010374 -0.08918749 -0.030632084
-0.027412867 0.08239619 0.044107962 0.039250858 0.085707396 0.022443512 0.06910708 -0.03897853
-0.074295916 -0.074510366 0.040185153 -0.004162597 -0.026268562 -0.051263735 0.046129487 -0.0712017
-0.038128614 0.048094545 0.012285944 -0.011743159 -0.038450457 -0.024069037 -0.08217156 0.07272323
-0.045523465 -0.03083537 0.057295658 0.028558835 0.08095685 -0.07028765 0.028046211 -0.004462559
0.041802093 -0.061412137 -0.08479629 0.0033034354 0.020040892 -0.0821234 -0.08219396 0.01459979
0.027694298 -0.004325401 0.057516057 0.05542541 -0.012375364 -0.046792533 0.07191423 -0.086081356
0.0067135175 0.082600035 0.050180204 -0.048546683 -0.014208192 -0.042095825 0.068539865 -0.04743823
-0.007581102 -0.0526452 0.036187302 -0.06959275 -0.060905438 -0.0020996938 -0.017043717 0.08436595
-0.00014663558 -0.03708305 0.03769315 -0.07306268 0.075117946 -0.059463408 0.00042931628 -0.037620094
0.078442276 -0.059299745 0.009885161 0.0013543678 -0.06463231 -0.0054498953 0.042684175 -0.010772487
0.010622312 -0.08941415 0.06540656 -0.024601463 -0.043674808 0.01971913 0.029517975 0.018825196
-0.02810166 0.019130858 -0.07426018 0.04308032 -0.048547126 0.07372329 -0.031907793 -0.024437228
-0.038617335 -0.07540767 0.05853904 -0.0021241603 0.059020355 -0.05507513 0.017048866 -0.068568565
-0.035300393 0.036302626 0.00714329 0.080155194 0.07660282 -0.052646376 -0.061784048 0.09230222
0.041091226 -0.037168227 -0.031222057 -0.026416501 0.06467737 0.035866126 0.033906043 0.0014876778
0.025027182 -0.07272941 -0.021082355 0.006506305 0.01647905 -0.052590866 0.07560131 0.08533753
0.069368064 0.03555442 0.014036567 0.049616072 -0.020194195 -0.005181589 -0.08784619 -0.054837853
0.05967162 -0.03901498 0.041170016 0.09232999 0.0408924 0.00935491 -0.049285494 -0.006842239
0.06996062 0.082805835 -0.046994805 -0.028475441 0.036227457 -0.047141295 -0.07995045 0.03757757
-0.04317455 0.089060865 0.07727409 -0.03874437 -0.047227945 -0.06573122 0.088267125 -0.008397293
-0.02108718 0.050023437 0.015301223 0.057094596 0.0609996 -0.018847054 -0.063003294 0.04095627
-0.075940296 -0.06448981 -0.0021831277 0.038828243 0.06548756 0.035992652 -0.0051198415 0.056514017
0.03818168 -0.05644786 -0.03275955 -0.0037873096 -0.07179364 0.03818475 0.04248401 -0.02008002
0.0062627876 0.075600706 -0.079815164 -0.04486406 0.0033377483 -0.016054574 0.014166771 0.01335096
0.0813931 -0.04149448 0.06614002 0.002219517 -0.036355358 -0.024743944 -0.05464275 -0.05782609
-0.056981143 -0.063683026 -0.07960267 -0.059336778 0.035680655 -0.020473162 0.03243647 -0.06907418
-0.06133408 -0.018584691 -0.00566054 0.06660149 0.06839071 0.08529137 0.045711894 0.043552786
0.01609704 0.09231991 -0.016666738 -0.04067314 0.09235961 0.0058113057 -0.037862174 -0.01917387
-0.078233264 -0.008299356 0.06540025 -0.008239589 -0.035552703 -0.042639364 -0.018688457 -0.044614516

bias_ih_l0 f4 [512]
00000000: 10d9 7b3d dbef 903c dff8 4dbd 133f 5abd
00000010: 8a94 653d 11d1 4f3b 0742 3b3d aec5 c4bd
00000020: 32c5 443d 9c22 a2bd 8087 863d f77b 4abc
00000030: b927 09bd 7f42 063d e78e 953d e490 5c3c
00000040: 8de0 903d c2ee 693d 4933 403d 91d6 95bd
00000050: fc75 d5b8 aca0 4b3d e1f5 55bd bcba 26bb
00000060: 0851 ccbd 0d46 883d 70a7 a1bd 1af5 2e3d
00000070: b468 20bd 4525 e7bc 1d08 7ebb b811 46bc
00000080: fb4a 47bc 228e c1bd 68ac 0c3d 559a 17bb
00000090: 60bd 4fbd 4706 91bd 785a 94bd 1c44 edbc
000000a0: 59ac 1cbd 4050 13bd 692b 5ebd d20b 423c
000000b0: 498b d63c 98fa 493d e10e 1e3d a75c 95bd
000000c0: b775 553d 8921 bfbd 4afd 943c 71b6 0dbd
000000d0: 20fd f83b bad8 0d3c 7ac9 333d 9e88 22bd
000000e0: dac9 38bd 0adb 513d 1fde d13c 0eb0 53bd
000000f0: 77b9 2ebd 7278 703c a948 9b3c a647 b33c
00000100: ad74 91bd f19e 96bd 4d7e 92bd b568 763d
00000110: 3e72 8cbd a316 bbbb a783 813d 71d8 15bd
00000120: aa94 98bd 9092 393d 5c80 4a3d 323f 7a3d
00000130: 5ca1 10bd b42a d83c ceb6 34bc 69e8 9c3d
00000140: 4fb0 883d f8e5 f13c 5c81 1b3d f296 363b
00000150: 11c6 8c3d 2bcd a6bd 43ef a1bd c629 9abd
00000160: 97b1 16bd ca5b 4e3d d134 64bd f92c 33bd
00000170: c5bd 89bd 28a9 a93d 40b4 2e3c 051c 673d
00000180: 5aca bdbd 209d d9bb 0fb1 17bc fb81 b2bd
00000190: 2f1a 873d 4d69 593d be86 45bd e4e6 63bd
000001a0: dc34 2f3c 663a 5cbd 1b33 9cbd d297 26bc
000001b0: 0005 833d b0a2 163d 7561 d63c 7c1b b7bd
000001c0: 42b2 893d 8cf2 90bc 3d90 953d 2d19 a23c
000001d0: a0c6 a4bd f62a b63d 4c05 933d 8140 9bbd
000001e0: a800 613d c6a9 bcbc 3676 a7bd d211 853d
000001f0: b7cd 923d e03e 6e3d 111b 83bc 4014 0c3d
00000200: e679 70bc bb8d ba3c da96 54bd b96b eabc
00000210: 213c 78bc 62c5 043c 0e18 42bd 8f16 c33c
00000220: 4652 36bd 706c ac3c 4777 bf3c 0447 9dbd
00000230: 9b4d ecbc 15e4 adbd 7bc4 913d 4600 f03c
00000240: 4433 90ba 89b8 bbba c834 2cbd 722a 9d3c
00000250: 8d93 513d 80d3 5abd 84b1 e73c 91de 053d
00000260: cfb1 01bc f1fd 92bd df4b 91bd 48d7 5abd
00000270: 5a67 40bd 34f1 973d b140 11bd a997 28bd
00000280: 2df6 7c3d 9ef5 243c 6639 3d3d 7862 4dbc
00000290: ecc1 ca3c dc1a a1bd 4d0b 683d dd11 a7bb
000002a0: 918a 293b 1a6f 383d 5dee 1f3d e808 fbbc
000002b0: 49c8 fdbc 2fd4 95bd 2a46 d0bc 83cb 3ebd
000002c0: 345f 983c 5bde 52bb 0f5e 80bd b01b cbbc
000002d0: a0e1 213d bf15 5c3d 8669 4a3c beab 89bd
000002e0: 2896 cbbc aee1 b3bd 60d8 84bd 10a2 983c
000002f0: 1b4b 0d3d 5687 37bd a30c 953c a140 9a3d
00000300: 9eb2 7e3d 3f5a 8e3c 8d49 9c3a 01f7 593d
00000310: 3730 a8bd 44d0 2a3d 370c 403d aad9 8fbb
00000320: 52eb 76bd 95dd 173d 6620 8c3a 793f 003d
00000330: 8e9f d33c f7ab efbc bd59 8fbc 9081 4fbd
00000340: 712f 62bd faed 843d 17cd 643d 1d09 a1bd
00000350: d08c a1bd e54d 49bd e615 90bd 1457 99bc
00000360: ebd8 2dbd 852b 913c 32b0 0abd d457 473d
00000370: cb7e 6fbd 95c8 a8bd d08a d13c e2c2 aabd
00000380: 07a1 5e3d 5804 843d 350e c33b b5a7 b5bd
00000390: cd90 773d ed15 8fbc 41d3 31bc e065 6f3d
000003a0: c3c5 c63c 1692 2b3d 24e1 a3bd 5c0b 1e3d
000003b0: 4c95 60bd 97a8 dd3b d54a bfbd c1f5 f73b
000003c0: 292e fcbb 426d 35bc 5f03 843d 5cb9 4ebd
000003d0: 908c f53a d793 03bd e0de d93c 7288 893d
000003e0: 41f9 07bc f626 2a3d 3256 a93d dece 923d
000003f0: ac9c 1b3d 8b1e ab3c 5382 f0bc 8fc3 b7bd
0.061486304 0.017692497 -0.05028617 -0.05328281 0.05604986 0.0031710307 0.045717265 -0.09608017
0.048039623 -0.079167575 0.06568813 -0.012358657 -0.033485148 0.03277826 0.07302647 0.013462279
0.0707408 0.057112463 0.04692391 -0.07316316 -0.00010178608 0.049713776 -0.05223644 -0.0025440892
-0.09976393 0.06653986 -0.07893264 0.042714216 -0.039162353 -0.028216014 -0.003876216 -0.012089185
-0.012163873 -0.09450938 0.034344107 -0.002313276 -0.05071771 -0.070812754 -0.07243818 -0.028963141
-0.0382503 -0.035965204 -0.054240618 0.0118436385 0.026189463 0.04931125 0.03858841 -0.07293063
0.052114215 -0.09332568 0.018187184 -0.034597818 0.007598534 0.008657629 0.043893315 -0.03968107
-0.045114376 0.051234283 0.02561861 -0.05168157 -0.04265734 0.014677154 0.018955545 0.02188475
-0.07102332 -0.073545344 -0.07152996 0.06015845 -0.068577275 -0.0057094856 0.06323939 -0.036583368
-0.074502304 0.04530579 0.04943882 0.061095424 -0.035310134 0.02638755 -0.011029912 0.07661516
0.06674253 0.029528603 0.037965164 0.0027860967 0.06873716 -0.081446014 -0.07906964 -0.07527499
-0.036790457 0.050380506 -0.055714432 -0.04374406 -0.06725649 0.08284217 0.010663092 0.056423206
-0.09267111 -0.006641045 -0.009258523 -0.08716198 0.06596791 0.05307894 -0.048224203 -0.055640116
0.010693755 -0.05376663 -0.07626935 -0.010168033 0.06397438 0.036776245 0.026169518 -0.08940789
0.06723453 -0.01769378 0.07302902 0.019787395 -0.08045697 0.08894913 0.07178745 -0.075806625
0.054932266 -0.023030173 -0.08176844 0.064975396 0.07168143 0.05816543 -0.016004117 0.034199
-0.0146775 0.02277266 -0.051901676 -0.02861582 -0.015151055 0.0081037 -0.04738622 0.023814468
-0.044512056 0.0210478 0.023372306 -0.07679561 -0.028845599 -0.08490769 0.07117554 0.029297005
-0.0011001606 -0.0014321964 -0.042042524 0.019185279 0.051166106 -0.05342436 0.028282888 0.03268296
-0.007915928 -0.07177342 -0.070945494 -0.053427964 -0.046973564 0.07419053 -0.035462085 -0.04116026
0.06175821 0.010068325 0.046197318 -0.012535684 0.024750672 -0.07866451 0.056651402 -0.005098565
0.0025869946 0.04502783 0.03904568 -0.030643895 -0.030979292 -0.073158614 -0.025424082 -0.046580803
0.018600084 -0.0032175991 -0.0626794 -0.024793476 0.039521813 0.053731676 0.01235426 -0.0672221
-0.024851874 -0.08783279 -0.06486583 0.018631965 0.034495454 -0.0448068 0.018194502 0.07531858
0.06218206 0.017377017 0.0011923775 0.053214077 -0.08212321 0.041702524 0.04688665 -0.0043899613
-0.060283013 0.03707655 0.0010690808 0.031310532 0.025832918 -0.029256804 -0.017498845 -0.05066067
-0.055221025 0.06490703 0.05585965 -0.07863066 -0.07888186 -0.04914655 -0.07035427 -0.01871828
-0.042443197 0.017720947 -0.03385944 0.048667744 -0.05847053 -0.08241383 0.025578886 -0.08337952
0.054352786 0.06446141 0.0059526213 -0.08869878 0.060440827 -0.01746651 -0.0108535895 0.058446765
0.024264222 0.041887365 -0.080019265 0.038585052 -0.05482988 0.0067644822 -0.09340445 0.007567138
-0.0076959324 -0.011073412 0.064459555 -0.05046974 0.0018733907 -0.032123413 0.026595533 0.06715478
-0.008299173 0.041541062 0.082683936 0.07168363 0.03799121 0.020888587 -0.029359018 -0.08972847

bias_hh_l0 f4 [512]
00000000: 2945 573d 70ac 0d3d a376 a5bd 8242 cfbd
00000010: 73a1 91bd c6a5 9ebd 0b67 e4bc 5b65 c33c
00000020: a0a3 ef3c 324f 893d b152 a1bc 12d8 02bd
00000030: d618 9abc 1a52 973d b4e3 18bb 8770 8f3d
00000040: 75ea 54bd d39d 903d 36bc cd3c 67d2 efbb
00000050: e252 2f3d c9da 62bd 358d 113d dd6f 863b
00000060: 7551 823d 4cb8 77bd cfd1 bbbc febd 3e3d
00000070: ffd0 ee3c ef73 1f3a 3563 6c3d aac9 5d3c
00000080: cb45 9ebb 3e40 dfbc 71c4 aabd d6b0 bdbb
00000090: 7001 3fbb 5668 22bd 5bbc afbb 31b2 893d
000000a0: feec 503d fa0e 1bbd b346 8b3c 1e71 793c
000000b0: eeb4 7c3d c947 383d 633e 833d abf3 493c
000000c0: 999e 71bd 4b34 b33c b529 42bd cef1 4f3d
000000d0: 0c2d 5b3b a85b f6bb be36 afbd 9442 8f3d
000000e0: 28cd 253d 3732 9f3b f269 983c 5582 253c
000000f0: d533 f5bc 9e4b ebbc 3638 043d 743c 64ba
00000100: 09d8 5a3d d3b5 6bbd 774e f43c ddba 5fbb
00000110: 7a65 06bd a905 5d3d 71e8 233d bba2 51bd
00000120: 844c b1bc 513a 9d3c 275b 03bd e37e b7bd
00000130: d605 653d 635a 623b 97e8 31bb 2817 a8bc
00000140: b3ca 6abb 131e eb3c 5742 87bd 6a98 6f3d
00000150: 5ebe 3c3d fa81 893c 2f20 a7ba 9ea1 433c
00000160: 1a4b 6b3d 91ac b8bd 5106 9c3d be87 b7b9
00000170: ade1 87bd 9e3c 753d 04f3 b2bc 75a1 e23c
00000180: f64f aeba cb2a 51bd 0e4d 143d c45b 96ba
00000190: fe64 b3bc 4588 8d3d 5dd7 22bd 83d9 7dbd
000001a0: 8891 69bd fd40 07bd 8e5e 0ebd bf76 3fbd
000001b0: 5c82 683b a7fd 8f3d d461 93bd a67e 88bd
000001c0: c270 023d e032 efbc c276 a93d b023 9ebd
000001d0: 326e 89bd 706a 123c f60c 9b3d 4f67 a4bd
000001e0: 3cf8 bcbd ac6b 3a3d 4d68 aebd dce1 863d
000001f0: 993d 023d 3ded f33c 717a 5fbd bbf7 9aba
00000200: 0bba 023c 2b40 873d 4d0b e8bc ce5c 643d
00000210: a783 a53d 8b05 32bd 7a7f 383d 2369 adbd
00000220: 161f 883d f3f5 2a3d fea2 8a3d f876 06bd
00000230: 1ffb 09bd e2bf b7bd 5352 68bd 6243 d5bb
00000240: 76e5 793d 715f 803c 21c9 fc3c bfa3 a6bd
00000250: 87e1 853d 8faa 55bd 3bb5 64bd 937e 1eba
00000260: b86f 943d c68e 03bd 2229 5a3d 5733 adbc
00000270: 6ac7 b2bd 9cb4 acbd c5cb 83bd b394 d63b
00000280: 2dfb db3c 5a72 84bd 0a3d a03d 488d 1abd
00000290: e27b fcbc 6100 1dbc 4462 6b3d 9448 313d
000002a0: 68e1 94bd 46ef 26bd 8c72 b33d a7e1 b7bd
000002b0: fad0 263d 2c92 573d e2c9 073d a3f0 983b
000002c0: 9f75 03bd a3cc 8e3d f9ac 8cbc 9923 813d
000002d0: 98ea 4fbd 6f6b 7fb9 d822 71bc cb77 233d
000002e0: 1e7b 74bd aaf6 c8bd 59fb 2a3c 0690 00bd
000002f0: a857 f03c 734e 7dbc eb4b 6bbd 878b 83bd
00000300: ae2a 2bbd 0544 66bd 90c5 f63c 7034 863d
00000310: 21e7 1bbd bb95 c4bd 188b cfbd 60c4 94bb
00000320: 152b 86bd d591 4f3d 47a7 84bd 0615 cbbd
00000330: 4a0a aabd 0a67 8c3b b006 013c e526 ddbc
00000340: 905e 883d 00ec 98bd e432 50bc 8a1b 64bd
00000350: f153 b3bb e7cd 54bd 247d 3dbd 23e5 0abd
00000360: d153 913c 786a 19bd bd01 883d 4096 863c
00000370: 7b77 1e3d 06e5 74bd 93db b1bd 08e9 7fbd
00000380: 3c38 623c ba82 393d df98 643d a0e4 1a3d
00000390: c09c 4ebd eb79 ae3c a5ce 653d 7810 b8bd
000003a0: cf23 9fbd 189f 14bd 70a9 4fbd 5243 b1bd
000003b0: 6b1b a3bd 6ff2 73bd d57e cdbb ee56 3fbd
000003c0: 47ed 80bd c359 873d 157b 0e3d 48fb a9bd
000003d0: 0388 a2bd 301a 29bd 30d5 84bd 5932 a5bc
000003e0: 8d14 4cbd 3d4b 38bd 5a38 843d 26b6 2bbd
000003f0: 9d01 633a d625 1cbd d7d2 433d e359 adbd
0.05255619 0.034588277 -0.08079269 -0.10120107 -0.07110872 -0.077464625 -0.027881166 0.023852041
0.029252827 0.067045584 -0.01969275 -0.031944342 -0.01881067 0.073887065 -0.002332908 0.07003885
-0.05198141 0.070613526 0.02511416 -0.007318783 0.042803653 -0.05538443 0.035535056 0.0041026906
0.06363193 -0.060478494 -0.022927193 0.04656791 0.029152391 0.0006082644 0.0577118 0.01353685
-0.0048300973 -0.027252313 -0.083382495 -0.0057889028 -0.0029145144 -0.039650284 -0.00536303 0.067234404
0.051007263 -0.03785608 0.017001485 0.015224723 0.061695985 0.044990335 0.06408384 0.012326161
-0.05898914 0.021875521 -0.047403056 0.050767712 0.0033443598 -0.0075182505 -0.08555363 0.06995121
0.040478855 0.004858281 0.018605206 0.010101874 -0.029931942 -0.02872258 0.03228017 -0.0008706518
0.053428683 -0.057546448 0.029822571 -0.0034138479 -0.03281162 0.053960476 0.040016595 -0.051180582
-0.02164293 0.019192846 -0.03206935 -0.089597486 0.05591377 0.0034538738 -0.002714669 -0.020518854
-0.0035826385 0.028700864 -0.0660445 0.058494963 0.046079986 0.01678561 -0.001275068 0.011940388
0.05744467 -0.090172894 0.07618392 -0.00035005616 -0.06634841 0.059872262 -0.021844395 0.02766488
-0.0013298977 -0.0510662 0.036206298 -0.001147144 -0.021898743 0.06910757 -0.039756168 -0.061975013
-0.057023555 -0.033020962 -0.034758143 -0.046744104 0.003547809 0.07030802 -0.071963936 -0.06664781
0.031845815 -0.029199064 0.082746044 -0.077216506 -0.06710471 0.0089365095 0.075708315 -0.08027517
-0.092270344 0.04551284 -0.085159875 0.06586048 0.031797025 0.02977621 -0.05456013 -0.0011823097
0.007978926 0.06604036 -0.028325701 0.055752568 0.08081751 -0.043462317 0.045043446 -0.08467319
0.06646554 0.04173846 0.067693695 -0.0328283 -0.033686753 -0.089721456 -0.056719135 -0.006508277
0.061009847 0.01567051 0.030857624 -0.08136701 0.065371566 -0.05216461 -0.055836897 -0.00060460827
0.07247871 -0.03211858 0.053261884 -0.021142645 -0.087294415 -0.08432886 -0.0643535 0.006548488
0.026853168 -0.06467123 0.07824142 -0.037732393 -0.03082079 -0.00958261 0.05746676 0.043282107
-0.07269555 -0.040755533 0.087620825 -0.08978587 0.04072664 0.052629635 0.033151515 0.004667358
-0.032094594 0.06972625 -0.017172324 0.06305618 -0.050760835 -0.00024358717 -0.01471778 0.039909165
-0.059687726 -0.098126724 0.0104359025 -0.03138735 0.029338673 -0.015460598 -0.057445448 -0.06423097
-0.04178875 -0.056217212 0.030123502 0.065529704 -0.03806222 -0.09598871 -0.10133952 -0.0045400113
-0.06551186 0.050676186 -0.06477218 -0.09916119 -0.08302744 0.004284744 0.00787513 -0.026996085
0.06658661 -0.074668884 -0.012707446 -0.055690326 -0.005472653 -0.051954176 -0.04626192 -0.033909928
0.017740162 -0.037455052 0.066409566 0.016429067 0.038688164 -0.059788726 -0.086844586 -0.062478095
0.013807353 0.045290686 0.05580985 0.03781569 -0.050442457 0.02129837 0.056105275 -0.08987516
-0.07770502 -0.036284536 -0.050698698 -0.086554185 -0.07964214 -0.059557375 -0.006271223 -0.046713762
-0.06295257 0.066089176 0.03478535 -0.08299881 -0.079360984 -0.04128474 -0.06485975 -0.02016561
-0.049824286 -0.044993628 0.06456061 -0.041921757 0.0008659603 -0.03812202 0.047808494 -0.0846441

weight_ih_l1 f4 [512, 128]
00000000: 437d 3e3d e705 9bbd 8c65 d0bd 3ada 46bd
00000010: 1880 b0bb a80b d23d dcfb 8b3d 0151 c5bc
00000020: 0e0d 12bc 2932 71bc 64c1 6eba 993d b2bd
00000030: 2600 e23b f1ca a13c f3f0 d3bc 8f0c 16bd
00000040: 1641 a8bd c539 29bd eb4f 9fbd 2b52 f03c
00000050: 4095 cbbd 56ce a2bd 5dfc 863d 041b 853c
00000060: 8b03 04bd 8be0 cdbd ce82 51bd eac1 613d
00000070: a969 3f3d cf88 8c3d 5de4 b33b 60c5 103d
00000080: 778b 553d a267 9abd 5cd1 863d 907c 2d3d
00000090: 4040 883d 8875 33bd a5d4 f23c 4089 943d
000000a0: 1d02 f9bc 2a2e bc3d e0fc 35bd 6bdf 6d3d
000000b0: e64a bcbc b3a9 5b3d 76ce 6fbd 9b9b 88bc
000000c0: 4ef0 a1bd 6c62 56bc 7836 c73d e0be d9bc
000000d0: e6d1 21bd 72f8 aa3d 2a80 973d 42e7 653d
000000e0: d293 98bc 8b57 2fbd 4a84 e03b 0339 7e3d
000000f0: 6d40 84bd 96b2 a23c 0467 b0bd f3e9 0e3d
00000100: d682 8d3d 4aca dcbd 1c91 1d3d cecf ffbc
00000110: c7e4 58bd d65c dd3c 7354 a93d ea5f 3dbd
00000120: 8a08 f8bc 4559 02bc a064 6abd 2dbc 483d
00000130: b32a 1d3a a444 f0b9 9ca8 8cbd 2b8d 833d
00000140: ea55 583d 6002 5dbd 3864 a8bd 46f3 05bc
00000150: bd7b 35bd 96d9 0a3d ee86 943c ffda 22bd
00000160: 935b 803d c172 423d 6bfb c3bd 2256 103d
00000170: 4dd0 c0bb 2854 63bd 0408 503d a2ea b4bd
00000180: a160 693c 6f4b cebd f421 a0bd a07d 52bd
00000190: 00e4 36bd 07a8 c6bc b8c9 82bd a405 823d
000001a0: 5f28 9b3c 1761 babc 0581 d0bd 7bff 253d
000001b0: e773 823c 1ee0 593d 93e8 4c3d e459 c8bb
000001c0: acbf 38bd 9f7e 6e3d 10b0 2c3c 67c1 14bd
000001d0: 89d1 ae3d b5e8 4a3d c70f 93bd 5179 053a
000001e0: 86e2 243d b7f4 293d 11e0 4a3d 322b 503d
000001f0: 83af aabd c91b 1ebd 63b1 45bd 1fb3 533d
00000200: 97ec 873d 32e1 6a3d d8cc a0bd b6d2 aebd
00000210: ac61 a1bc 964d 4a3d 629d 893c 729e 213d
00000220: 1941 6c3d 0307 9a3d 0919 1f3d 66da 133d
00000230: 026f 463c 62a5 7cbd 7268 983d c30b f5bc
00000240: ee79 33bd 77ff b03c 2174 2dbd be35 183c
00000250: d983 0fbb d8c2 b5bd f0af 843d d692 893d
00000260: 63b7 8c3d 8195 a03d 4bfb d73c 6fc4 37bd
00000270: be94 e23a 3fa2 92bd 0558 da3c c796 57bb
00000280: d9d5 313d ed2e 8e3d f56e 25bd df9b 8b3d
00000290: fa58 123b d14b 97bd 8c9e a13d fc2f be3c
000002a0: 5365 53bd bec6 8bbc 8390 4d3d 6530 2bbd
000002b0: a9b1 04bd 27e3 443c 5a42 01bd 5bcc a3bd
000002c0: d8c8 053d a02c 153d 12f8 40bd 2cec c63d
000002d0: 100a 0a3d 863d b03d a5ad 74bd 3c4e 963b
000002e0: cf23 03bd ccf7 a43d 0060 953d 6305 5c3d
000002f0: df5c 8f3d b25a 48bd 56a6 9f3d 9f72 a1bd
00000300: b3ee 953c 57e2 b6bc a68c c83d 455c 20bd
00000310: ac24 acbd 06be 42bd bd70 53bb 39a8 7bbc
00000320: 7238 a93d 3fab 8f3d 31e1 453d f28f 69bd
00000330: 4117 163d db99 353d 9d39 963c e67f 76bd
00000340: f1be a5bd a61c 60bd 5177 a13d 4f1d 233d
00000350: 72be 8f3d 8acc c73d adce 0f3d c99b c63d
00000360: c68a adbc 49b0 23bd 98ec 20bd 4116 003d
00000370: 645a 4a3d 0b2a 61bd 6490 3bbd 0a79 a4bd
00000380: 33ce 3abd 0992 3a3d 7a63 3e3d 60e0 80bc
00000390: df97 1d3b e32e 07bc 1beb 983d 7209 333d
000003a0: b566 b6bc acd7 7e3d 348e 453d ec85 a6bd
000003b0: c1eb eebb 2368 a43d 0567 833d 5ca0 6ab9
000003c0: ccc2 6fbc 72fc 4fbd 12f1 823d 1af2 7b3d
000003d0: b608 0abd 9d48 4dbc e733 40bd ecb8 a43d
000003e0: db9d bebd e866 5bbd c296 8dbc c2a7 ccbc
000003f0: 214a 0abd 9b32 863d 345d d4bc 32eb 203c
0.046506178 -0.07569485 -0.101756185 -0.04854796 -0.0053863637 0.102561295 0.06835148 -0.024086477
-0.008914245 -0.014721432 -0.0009107797 -0.08703155 0.0068969904 0.01975009 -0.02587173 -0.03663307
-0.08215539 -0.04131486 -0.07778915 0.029336056 -0.099405766 -0.07949512 0.06591103 0.016248234
-0.03222994 -0.10052594 -0.051150136 0.05511657 0.046731625 0.06862032 0.0054898695 0.03534448
0.052134957 -0.07539298 0.06582901 0.04235512 0.0665288 -0.04381326 0.029642412 0.07252741
-0.030396516 0.091884926 -0.044430614 0.058074396 -0.022984933 0.053628635 -0.058546506 -0.016675761
-0.079071626 -0.013084989 0.09727186 -0.026580274 -0.039506815 0.083481684 0.07397492 0.056128748
-0.018625174 -0.042808097 0.0068517076 0.06206609 -0.06457601 0.019860547 -0.08613399 0.03489108
0.069097206 -0.10780771 0.038468465 -0.031227019 -0.052952554 0.027021807 0.082680605 -0.04623405
-0.03027751 -0.007955854 -0.05722487 0.049007583 0.00059954374 -0.00045827508 -0.06868097 0.0642341
0.05281631 -0.053957343 -0.0822224 -0.008175677 -0.04430746 0.033898912 0.018130746 -0.039759632
0.062674664 0.04747272 -0.095694385 0.035238393 -0.0058842064 -0.05550018 0.050788894 -0.08833815
0.0142442295 -0.100729816 -0.07818976 -0.051389337 -0.04465103 -0.024250044 -0.06386131 0.06348732
0.018940149 -0.022751374 -0.101808585 0.04052685 0.015924407 0.05319225 0.050026488 -0.0061142314
-0.045104668 0.058226224 0.010540023 -0.036317255 0.085360594 0.049538333 -0.07180744 0.0005091625
0.040255092 0.041493144 0.049530093 0.050822444 -0.083342575 -0.038600717 -0.048264872 0.051684495
0.06636923 0.05734367 -0.07851571 -0.08536284 -0.019699894 0.049390398 0.016798679 0.039457746
0.05767927 0.07520869 0.038842235 0.036096953 0.012111427 -0.06168116 0.07441796 -0.029912835
-0.043817453 0.02160619 -0.042347077 0.009290157 -0.0021898656 -0.08875054 0.0647887 0.0671746
0.06870916 0.078410156 0.026364943 -0.044865068 0.001728676 -0.07159852 0.0266533 -0.0032896267
0.04341683 0.06942544 -0.04038902 0.068168394 0.0022330866 -0.07387508 0.078915685 0.02321624
-0.051610302 -0.017062541 0.050186645 -0.0417942 -0.032395992 0.012017048 -0.03155742 -0.07997962
0.032662243 0.03641951 -0.04711158 0.09713015 0.033701003 0.08605485 -0.059735913 0.004586963
-0.03201657 0.08055076 0.07293701 0.053716075 0.07000136 -0.04891462 0.07795398 -0.0788319
0.018302297 -0.022324724 0.097924516 -0.039150495 -0.08405432 -0.0475445 -0.0032263242 -0.015359932
0.08262719 0.070150845 0.048310462 -0.057022043 0.03664327 0.04433618 0.018338019 -0.060180567
-0.0809306 -0.05471482 0.07884086 0.039822873 0.070187464 0.097558096 0.03510921 0.096976824
-0.021184336 -0.03996304 -0.039288133 0.031271223 0.04940261 -0.054971736 -0.045792 -0.08030899
-0.045606803 0.045549426 0.046481587 -0.01573199 0.002404682 -0.008250925 0.07466718 0.04371018
-0.022265771 0.0622174 0.04823132 -0.08131012 -0.0072912876 0.08027675 0.06416134 -0.00022375718
-0.014633846 -0.05077786 0.06393637 0.061510183 -0.033699714 -0.012529519 -0.046924498 0.080430835
-0.09307452 -0.053564936 -0.017283801 -0.024982337 -0.0337621 0.06552621 -0.025923349 0.0098217

weight_hh_l1 f4 [512, 128]
00000000: ecb6 abbd 5ce7 013d a193 f5bc 300f cebd
00000010: 7289 b13d 6d0e e03b 6871 dd3c 8a96 65bd
00000020: 9f3c 85bd a818 023d 0d9f 3e3d 7691 5bbd
00000030: d8ea 463d c05d febb 68f8 b5bc da23 9abd
00000040: 7ac5 803d 5859 00bd 156d 943d e43e 253a
00000050: 0384 efbb 9495 853c 72ad 2bbd 74d3 f937
00000060: 2997 6fbd 592a 303b 8601 183d b949 0dbd
00000070: e68d d03c c509 b13b e380 e43c ef0b 883d
00000080: 0612 b53d 5413 0ebd cddc 1cbd 8740 bc3c
00000090: ec47 ac3d 6790 3ebd 01a9 88bd f4df e03c
000000a0: 644a adbd e439 8c3c edcb 79bd 64de 963d
000000b0: 4824 92bd d24f 963d 6f5b ec3c 2b67 853d
000000c0: 0710 b8bd 2a76 813c dff4 0dbd 6082 8f3d
000000d0: 03ed 693d 98fc 6bbd d081 cbbb ac9d 3bbb
000000e0: c981 a73d a4ad 343d a2b4 2b3c c374 23bd
000000f0: 5446 4c3d efb6 813c 59d9 8b3d 4506 e8bb
00000100: 2f4b 673b 2fcd 66bd 9be2 00bd 008a a8bd
00000110: 8ac7 80bd b545 ccbd 3354 fbbc 7afc 4a3d
00000120: cce7 483d 7c99 83bc 36be cb3d f3fd bf3d
00000130: af13 563d 5758 4a3d eca3 c93c e555 bd3d
00000140: b9f8 733d cf0f 3b3d 95e1 80bd ea14 61bd
00000150: fb68 4d3d 66d2 89bd e75c 7b3b b060 c7bc
00000160: c4cd 163d a9fa 373d 89e8 06bc abab 1f3d
00000170: 4da1 1ebd af4c 003d b178 023d 28b6 10bd
00000180: 6d7e 9fbd ff87 783d 1f2d 4dbd b51d 4dbd
00000190: 2fbd 0c3d 3347 f23c c476 fbbc 2214 ab3d
000001a0: a0d6 bbbd e4a7 9c3d 3c4d ba3d 4b8b 143d
000001b0: 0d88 893d 39bc 3bbd 2525 a13d 63c7 89bd
000001c0: 89b5 ccbd d6a3 8bbc 3b1f 80bd 2c2e fc3a
000001d0: b8e2 05bd 9d88 b43d aaa9 debc a03a aabd
000001e0: 998e 97bd a7d9 3abd 8b5f bb3c c994 8abb
000001f0: ec5c 593d 6633 923d 16f2 433d f42c afbd
00000200: 064e 71bd c443 02bd 3a22 1b3d 0d9c 153c
00000210: 27b3 0c3c 6b98 373d 5b64 64bc fa90 42bd
00000220: 616b 80bd 2f5d 373b ff98 87bd ca6e 50bb
00000230: caa8 2a3c 84ac 813d 3546 47bd d62e b1bc
00000240: ca00 773c 3552 01bd b26c 0cbd 3c2a 5e3c
00000250: 995b cf3c 861c 79bc 33bf bf3c 5fd6 673d
00000260: 71ea 01bd 3fcf 823d a6bf 5a3d b5f6 993d
00000270: 53e7 213d 7436 623d 3c39 67bc 6592 31bc
00000280: 09c5 71bc 41ba 77bd b78a c13d 4e1f 893b
00000290: f15f 5bbd f33d c8bd 2b73 d7bc d959 023d
000002a0: af35 63bc f72c 7dbd d24a 51bb c68b 7fbd
000002b0: e8cd d93c 62e3 e43c 5f52 a7bc c828 0e3d
000002c0: f92f e1bc a400 e43c 1ece 53bd 1e25 073d
000002d0: 4a16 a0bd df75 af3c ac8e 853d 665b 813d
000002e0: 1e5d 513d a4e3 44bd ff8b 5dba 0011 ba3d
000002f0: 482d eabc 826a b9bc b678 853d 280d 963d
00000300: 3099 c53c 8489 bf3c 2ea4 90bc a524 8d3d
00000310: 6bcb aebd cef2 26bb 9a16 debc 3c02 b03d
00000320: 25e7 a23d b3d2 42bd fc7f 513d bc50 303d
00000330: 4017 85bd abc2 53bd 439f 8b3d 33da 47bd
00000340: fa39 e43c f1b5 c6bc 028a 97bd 6253 7a3c
00000350: f18d 2f3d a897 913d ae78 cabc c4da c7bd
00000360: 0889 c33d 9bb2 cdbc d605 90bd cd3d f63c
00000370: 654f 883d efdc 893b 1b58 313d 76bd 24bd
00000380: ec6e 95bd ea4f 48bc 8127 ad3d 4c29 3abd
00000390: 2965 d13c 7aa7 943d 4c6a 80bd f0f8 693d
000003a0: 5d55 203d 1603 60bc 3b32 a03c 31b7 63bd
000003b0: d857 133d 38d2 f23c 5629 55bd 5e68 50bd
000003c0: 9dfb a43d 08f4 1abd e9ef cebc 5767 793d
000003d0: 53c4 983d ac9f 3f3d eccf a9bd b252 1fbc
000003e0: a4a9 07bd bb66 c63b fbca 663d 860e 9f3d
000003f0: ae68 6f3d 6edc 8bbd 66e5 32bd 63e8 933d
-0.08384499 0.031714782 -0.029977622 -0.100614905 0.08668794 0.006837657 0.027031615 -0.05605177
-0.06505703 0.031761795 0.0465384 -0.05360552 0.04856381 -0.0077626407 -0.022213176 -0.075263694
0.06287666 -0.031335205 0.07247368 0.0006303622 -0.007309438 0.016306676 -0.041913457 2.9781579e-05
-0.058493767 0.002688071 0.037110828 -0.034494136 0.025458287 0.005402776 0.02789349 0.06642901
0.08841328 -0.0346864 -0.03829651 0.022979988 0.084121555 -0.04652443 -0.0667286 0.02745054
-0.084614545 0.017117448 -0.060985494 0.073666364 -0.07135826 0.07339443 0.028852193 0.06513818
-0.08987432 0.015803415 -0.034657355 0.07007289 0.057110798 -0.05761394 -0.006210543 -0.0028627915
0.081790514 0.04411091 0.010480078 -0.039906275 0.049871758 0.0158343 0.06828565 -0.0070808255
0.0035292616 -0.056348022 -0.031466108 -0.082294464 -0.06288059 -0.09974233 -0.030679798 0.049557187
0.049049184 -0.016064398 0.09948389 0.09374609 0.052264865 0.049400654 0.024614297 0.09244899
0.059563372 0.045669373 -0.06293026 -0.054951586 0.050148945 -0.067295834 0.0038354935 -0.024338096
0.036817327 0.044916783 -0.008234152 0.038982075 -0.038728047 0.03132313 0.03185338 -0.035329968
-0.07787786 0.06067657 -0.05009186 -0.05007716 0.034360107 0.029574966 -0.03069628 0.083534494
-0.09171796 0.0764921 0.090967625 0.036265653 0.06715403 -0.0458338 0.07868413 -0.06727483
-0.099955626 -0.017045897 -0.06255957 0.0019239835 -0.03268692 0.088151194 -0.027180512 -0.08311963
-0.07400245 -0.045617726 0.022872707 -0.0042291624 0.053067133 0.0713871 0.047838293 -0.08553496
-0.0589123 -0.031802908 0.037874438 0.009131444 0.008587635 0.04482309 -0.013939942 -0.04750154
-0.06270481 0.0027979126 -0.066209786 -0.0031804317 0.010416219 0.06331733 -0.04865094 -0.021628778
0.015075872 -0.03157254 -0.034283347 0.013559874 0.025312232 -0.015204554 0.0234066 0.056600925
-0.03171772 0.06387185 0.053405426 0.07517759 0.03952725 0.05522771 -0.014112767 -0.010838126
-0.0147564495 -0.06048036 0.09450286 0.00418464 -0.053558294 -0.09777441 -0.026300034 0.031823967
-0.01386778 -0.06181046 -0.0031935466 -0.062389158 0.026587442 0.027940456 -0.02042502 0.03470686
-0.027488695 0.027832337 -0.05171024 0.032994382 -0.07816751 0.02141851 0.06521353 0.06316261
0.051114194 -0.048068658 -0.0008451342 0.09085274 -0.028586045 -0.022633795 0.065171644 0.07326728
0.024120897 0.023381002 -0.017656412 0.06891755 -0.08534893 -0.0025474313 -0.027110387 0.08594176
0.079542436 -0.04756422 0.051147446 0.043045744 -0.06498575 -0.05169932 0.06817486 -0.048792075
0.027859677 -0.024256678 -0.0739937 0.015278669 0.042859975 0.07109004 -0.024715748 -0.09758523
0.09547621 -0.02510958 -0.07032363 0.030058766 0.06655768 0.0042072455 0.043296915 -0.040219747
-0.07296547 -0.012226084 0.084548004 -0.04544954 0.025560932 0.07258506 -0.062702745 0.05712217
0.03914391 -0.013672611 0.019555202 -0.055594627 0.035972446 0.029641256 -0.052041374 -0.050880782
0.08055804 -0.037830383 -0.025260882 0.06088957 0.07459321 0.046783134 -0.08291611 -0.009724306
-0.033120766 0.006054727 0.05634592 0.07766442 0.05844944 -0.06829153 -0.043675803 0.072220586

bias_ih_l1 f4 [512]
00000000: 0ca5 0e3c 92e1 44bc 4338 39bd 7a9b edbc
00000010: e8e3 c73c b964 6a3d 2f04 c2bd 5469 8dbd
00000020: 9a8a b6bd fe4d 41bc e3ff 87bd d1aa a7bd
00000030: 5aa6 843d acfd 413c d694 32bd 28fa d93c
00000040: bb9c a8bd 3a81 0b3d fb18 33bd b90e 9a3d
00000050: 0a46 b7bb 691d 54bd 8ba3 d73c 147d b23d
00000060: 75d3 fb3c ea07 a5bc 88fd 923c 8faf 823c
00000070: 17e2 82bd 8f97 a7bc aa3a babb 664e d73c
00000080: e04d c4bd 226f a93d ca2c 1a3d 8d19 0d3d
00000090: f296 32bc d412 debc 2c07 46bd 7487 3b3d
000000a0: 93a6 25bd 71ed 9dbd dda2 983d 017a 9bbd
000000b0: 9f6b b3bd f5ea 92bd 4cd6 5cbd 094c 54bd
000000c0: 122d 15bd a6d6 2a3b 7bb2 0bbd 572c ffbc
000000d0: c5e0 103b be75 59bd b0b8 09bd c5d8 683d
000000e0: be49 8ebc b7dc 373d 2ba5 8fbd f789 91bd
000000f0: 1a17 9d3b 303b 26bd 53dc 833c be86 11bd
00000100: 0631 b03a 449e 533d 5dd7 0f3d 6825 bcbc
00000110: 1995 89bd 6adb 893c 10b5 2f3d 4086 95bd
00000120: ecd9 38bd 55d8 073d d208 c53c 023f 9f3d
00000130: 4c78 92b9 babc 23bd 6e6d c4bd 3b3b bfbd
00000140: d066 50bd f77e 043d 9b53 a3bd 38d7 923d
00000150: fee9 cb3c db5c acbd d38a 343b 81f6 f8bc
00000160: 310a ddbd c918 c8bd 99b3 a0bd d87b 36bd
00000170: f582 77bd c64e 0d3d 3376 813c f1f9 70bd
00000180: 045a 083c 5adc 0cbd 820f 953c c968 b13d
00000190: dfc4 a5bd 4733 c4bb b76e 29bc f2de 653d
000001a0: 8764 9ebd 5e7b 3abc 1d87 c63c 0675 d93c
000001b0: d3cc b1bd 2109 88bd 34ef 11bd f45b 26bd
000001c0: 24fa 97bd d73e f13b 6fab 50bd cac7 24bd
000001d0: c766 4e3d 7590 3ebd 740f 853d 5650 6a3d
000001e0: 7374 1cbc ffd1 8dbd 802e 9bbc 7144 773d
000001f0: 2b38 843c 1047 cf3c a641 37bd 9046 95bd
00000200: ae08 b7bb ca34 e63a 1bbe a33c cbf5 9e3d
00000210: a67f 04bd fc31 9abd 7640 b0bc f95a 18bd
00000220: 5858 c0bd 11fe 1abd 76c5 933b b507 c13a
00000230: 9895 9fbd 59a1 75bd 1b58 f5bc fd12 8b3b
00000240: 9e48 c63c 0873 eabc 6a87 443d fd67 38bd
00000250: e782 98bd 8dae 213d a908 40bd 2c2a 8f3d
00000260: 3043 5dbd 8e4d e2bb aa13 b2bd ecf9 b6bd
00000270: 7f41 953d d4a3 273d 7e5a 3dbd 5aa1 c2bd
00000280: b2d3 45bc a437 1f3c 34e1 b1bd c507 9abd
00000290: 71b1 903b 6215 263b 15a7 fdbc 6aa4 ba3c
000002a0: d925 8a3c 6991 0fbd 3c7a 953d f978 98bd
000002b0: 82db 893d 0fa2 da3b e3d8 8cbd 19d5 cabd
000002c0: 91c5 a93c a8b5 2c3d 072e 2fbd c613 7d3d
000002d0: b5f4 e1bc a6b1 803c ea40 483d cbac 0d3d
000002e0: 9d85 783d 3c49 513d 3552 833d 5e21 b9bd
000002f0: d6ef 84bc 667d 983d 74ad e53a 2517 b6bd
00000300: d46b 703d 0192 143d c149 cabd bc9f 73bd
00000310: 6c58 c2bd a4e3 b53c 144f 44bd 1c04 51bd
00000320: dd14 773d 683d cc3c cb1c 75bd de99 863d
00000330: a791 443d 6388 40bd 76ee 3abd 2a81 4abd
00000340: 041e b0bc 5bb6 9fbd df60 e2bc 8ca7 5ebd
00000350: c39b 613d 859b 99bd c257 cfbb 5d82 38bd
00000360: b55c c03c ef8d 92bd 00ac 9a3d 14ef 6d3d
00000370: 7297 ed3c d9b7 8c3c 5132 8d3c 4985 b13d
00000380: 4444 583d b5a8 4bbd 2901 b0bd 4e04 213d
00000390: 4217 513d 8139 1abc d277 8cbd 37cd c9bc
000003a0: 780b 80bd dce5 6ebd d01a 383d 9d88 843d
000003b0: 9ded 21bd 672c b53c 96a6 09bd 8dfa a0bc
000003c0: 5b13 afbd d191 b3bd c661 9c3d daab b93c
000003d0: 5133 05bd 6829 5c3d 4bf1 653d c2f5 123d
000003e0: 89f4 80bd 7fcf a6bd 382e 9dbd b770 b2bd
000003f0: 3ba0 f63c 348f 53bd e7b9 a5bd 78eb 873c
0.008706342 -0.012016671 -0.04521967 -0.029004801 0.024400666 0.057224963 -0.09473454 -0.06904855
-0.08913155 -0.01179838 -0.066406034 -0.081868775 0.064770415 0.011840265 -0.043598972 0.026608542
-0.08233019 0.034058787 -0.043724995 0.075223394 -0.005593066 -0.05178586 0.0263231 0.08715263
0.030740479 -0.020145375 0.017943159 0.015952853 -0.063907795 -0.020458011 -0.005683263 0.0262825
-0.09585166 0.0827315 0.03764037 0.034448195 -0.010900246 -0.027108587 -0.048346683 0.045783475
-0.04044206 -0.07711304 0.07452939 -0.0759163 -0.087607615 -0.07173721 -0.053915307 -0.051830325
-0.036419936 0.0026067882 -0.03410576 -0.031149073 0.002210663 -0.053090803 -0.033623397 0.056847353
-0.017369147 0.044888224 -0.07013925 -0.07106393 0.0047940137 -0.04058379 0.01609627 -0.03552889
0.0013442344 0.051664606 0.035117496 -0.022967055 -0.06717891 0.016828258 0.042897284 -0.07300997
-0.0451297 0.033165295 0.024052057 0.0777569 -0.00027936918 -0.039974906 -0.095911846 -0.09337469
-0.0508793 0.032347646 -0.07974931 0.07169956 0.02489185 -0.08416148 0.0027548566 -0.03039098
-0.107929595 -0.097703524 -0.078467555 -0.0445517 -0.060427625 0.034498952 0.015803432 -0.058832113
0.008322243 -0.03438983 0.018195871 0.08662564 -0.08094191 -0.005987558 -0.010341338 0.05612082
-0.07734018 -0.011381952 0.024234349 0.026545059 -0.08681645 -0.06642366 -0.035628513 -0.040615037
-0.074207574 0.0073622274 -0.05094474 -0.040229596 0.050390985 -0.046524484 0.06497088 0.05720552
-0.009549248 -0.06924819 -0.018943071 0.060368005 0.016140064 0.02530244 -0.04474034 -0.07288849
-0.0055857515 0.001756334 0.01998811 0.07761725 -0.032348298 -0.07529065 -0.021515112 -0.037196133
-0.0939185 -0.037839953 0.004509623 0.0014727028 -0.077922046 -0.059968326 -0.029949239 0.004244207
0.024204548 -0.028619304 0.047980703 -0.045021046 -0.07446843 0.039473105 -0.04688326 0.069904655
-0.054019153 -0.006906218 -0.08695157 -0.089343876 0.07287883 0.040927723 -0.04622888 -0.095034316
-0.012074398 0.009717856 -0.08685532 -0.07521013 0.004415684 0.0025342335 -0.03096346 0.022783477
0.01686375 -0.035050783 0.07298705 -0.07444949 0.06731321 0.006672151 -0.06877305 -0.099039264
0.02072409 0.04216543 -0.042768504 0.061786436 -0.027582506 0.01570971 0.048890032 0.034588616
0.0606743 0.051095232 0.06412164 -0.090395674 -0.016227644 0.07445793 0.0017523007 -0.08891133
0.058696583 0.036272053 -0.09877349 -0.059478506 -0.094895214 0.022203274 -0.047926977 -0.05102931
0.06032263 0.024931625 -0.059841912 0.065723166 0.047990467 -0.04700507 -0.04563757 -0.049439587
-0.021498688 -0.077984534 -0.027634082 -0.054359004 0.055080187 -0.07500366 -0.0063276 -0.0450462
0.023481706 -0.07155978 0.07552338 0.05808933 0.029002879 0.01717751 0.017235907 0.08668
0.05279948 -0.04972144 -0.08593971 0.039310746 0.05104757 -0.009413124 -0.068587914 -0.024633987
-0.062521875 -0.05832468 0.044947445 0.064713694 -0.039533246 0.0221159 -0.033606134 -0.019650722
-0.08548614 -0.08768047 0.07635836 0.022664953 -0.032519642 0.053750426 0.056138318 0.035878904
-0.062966414 -0.081450455 -0.07674831 -0.08712905 0.0301057 -0.05165024 -0.08092099 0.016591772
